ckpt/ckpt_iron_ID_100_gnn/best/gnn_147_0.423_0.422.ckpt (torch, 988047 bytes, 150 tensors)

gnnModel.init_atom_embedding.embed_list.0.weight f4 [124, 64]
2.992338e-39 -3.166731e-39 -1.26172e-40 -1.075658e-39 -4.542121e-39 1.538479e-39 2.160956e-39 -1.530514e-39
-2.99303e-40 3.1473e-41 -2.525349e-39 1.523714e-39 2.466633e-39 -2.179358e-39 -2.70678e-40 -4.351631e-39
3.331496e-39 -6.99642e-40 -1.145199e-39 1.541441e-39 1.679298e-39 7.58856e-40 2.535088e-39 2.24222e-39
-3.014709e-39 2.261039e-39 4.06088e-40 4.00021e-39 5.24562e-40 2.521328e-39 2.834849e-39 4.190897e-39
3.904699e-39 -2.024164e-39 2.095317e-39 -1.727525e-39 2.93388e-39 1.24274e-39 -1.878668e-39 -3.511623e-39
-4.15273e-39 -4.422519e-39 -1.019243e-39 2.504347e-39 -3.058956e-39 1.850293e-39 -4.114927e-39 -2.43025e-39
2.51998e-40 -7.01302e-40 -2.127767e-39 9.44175e-40 -3.925544e-39 1.149136e-39 2.465564e-39 3.062895e-39
4.45696e-40 -4.112301e-39 -2.073846e-39 1.966194e-39 -6.71965e-40 -1.645349e-39 -1.496916e-39 2.392545e-39
-2.986823e-39 2.591731e-39 4.05801e-39 -2.887602e-39 -3.84515e-40 -1.452257e-39 -3.794042e-39 2.79134e-39
-1.721174e-39 4.135041e-39 -4.319281e-39 -3.948782e-39 -7.38905e-40 -3.528156e-39 6.11988e-40 3.178251e-39
3.716399e-39 2.95875e-39 4.509656e-39 2.4199e-41 -3.845209e-39 2.562081e-39 -2.313862e-39 4.561819e-39
1.099864e-39 -1.689764e-39 -1.72513e-39 2.26686e-39 2.167744e-39 3.073566e-39 1.070085e-39 3.652381e-39
1.406056e-39 -1.375842e-39 -2.0585e-40 -3.747141e-39 4.64145e-40 1.021371e-39 4.018904e-39 2.571343e-39
-2.161745e-39 -1.55798e-39 -2.844457e-39 -3.293947e-39 2.684893e-39 -2.956174e-39 2.152057e-39 -9.51193e-40
5.3751e-40 3.449497e-39 -3.267999e-39 3.382863e-39 3.327225e-39 -2.729984e-39 4.653174e-39 1.26715e-39
2.061697e-39 -1.837418e-39 -1.934352e-39 -9.8238e-40 -3.203995e-39 1.582335e-39 -4.082278e-39 4.134926e-39
2.385718e-39 4.453685e-39 -2.929877e-39 4.609137e-39 -2.127991e-39 -3.064599e-39 5.028135e-39 3.287347e-39
-1.881954e-39 3.07839e-40 -2.943678e-39 1.647144e-39 -1.523078e-39 -2.91867e-40 3.24573e-39 -7.87548e-40
4.271182e-39 -3.126e-40 8.89445e-40 -3.033203e-39 -3.792759e-39 4.09132e-40 3.512097e-39 -2.54382e-39
-1.4042e-40 -2.885753e-39 -3.076139e-39 -8.253e-40 -6.9219e-40 3.049546e-39 3.409234e-39 2.52962e-39
4.14129e-39 6.87247e-40 -1.142183e-39 4.184571e-39 8.76593e-40 -3.720387e-39 -3.19383e-40 -2.615207e-39
2.983186e-39 1.13693e-39 -3.749735e-39 -4.3639e-39 3.273398e-39 4.44961e-40 2.3396e-40 -1.237907e-39
6.3692e-41 2.590655e-39 3.124708e-39 -9.6334e-41 1.912617e-39 -3.85834e-39 8.51688e-40 -2.594356e-39
1.70697e-39 -3.544461e-39 -2.596267e-39 -3.282748e-39 -4.038657e-39 1.308164e-39 2.740725e-39 -2.451273e-39
9.51938e-40 -3.560367e-39 -6.90194e-40 3.419003e-39 3.285554e-39 -9.83187e-40 3.8209e-40 1.325397e-39
-1.427594e-39 1.689017e-39 7.22476e-40 -1.12444e-40 -1.966445e-39 1.15754e-39 4.45699e-39 4.646396e-39
1.775208e-39 7.59623e-40 -2.749114e-39 2.087779e-39 -6.36468e-40 3.373255e-39 -2.845915e-39 -2.664709e-39
-3.465045e-39 3.389297e-39 -1.484618e-39 -3.149599e-39 2.297367e-39 2.936893e-39 -1.213139e-39 1.79736e-39
1.441486e-39 2.973899e-39 -4.049566e-39 2.98292e-40 -2.162391e-39 -6.35262e-40 -1.031608e-39 -4.397266e-39
3.96832e-39 1.262546e-39 -3.567627e-39 2.063092e-39 -2.392768e-39 -3.569428e-39 2.466675e-39 1.11589e-39
-1.863367e-39 -5.026104e-39 2.388735e-39 -4.362e-39 1.731841e-39 -9.7291e-41 2.74019e-39 -2.203084e-39
-1.488532e-39 -2.422108e-39 2.788417e-39 -4.657169e-39 -1.609286e-39 1.90235e-39 -3.543639e-39 -3.132411e-39
00000000: 6c95 2000 8f7b 2280 b75f 0180 7fb6 0b80
00000010: 9675 3180 a7c0 1000 de87 1700 73aa 1080
00000020: 5642 0380 bc57 0000 a57f 1b80 7f97 1000
00000030: f8db 1a00 2abb 1780 8af2 0280 9462 2f80
00000040: db46 2400 519e 0780 5978 0c80 e9c8 1000
00000050: 3349 1200 6243 0800 cb9a 1b00 666a 1800
00000060: c8d3 2080 db9e 1800 026c 0400 f58e 2b00
00000070: 44b6 0500 7074 1b00 68de 1e00 84a2 2d00
00000080: b684 2a00 8c0a 1680 e4d0 1600 a3cf 1280
00000090: 77f2 1f00 4188 0d00 f674 1480 fa3c 2680
000000a0: 1f38 2d80 2f28 3080 3c19 0b80 1a45 1b00
000000b0: 204f 2180 dd25 1400 bece 2c80 8c76 1a80
000000c0: 78be 0200 f2a2 0780 592b 1780 fa47 0a00
000000d0: d2be 2a80 5383 0c00 fdd8 1a00 1b5a 2100
000000e0: 6bda 0400 6cc7 2c80 0a95 1680 f368 1500
000000f0: 2a51 0780 90ea 1180 cb4c 1080 710d 1a00
00000100: 0c86 2080 b138 1c00 1530 2c00 7671 1f80
00000110: df2f 0480 4dd0 0f80 3f50 2980 1f65 1e00
00000120: efbd 1280 d006 2d00 6608 2f80 99ff 2a80
00000130: c40b 0880 106b 2680 f9a9 0600 ac9b 2200
00000140: cf77 2800 cb37 2000 161b 3100 7543 0000
00000150: e1de 2980 0ae6 1b00 1b32 1980 7fac 3100
00000160: f9f9 0b00 6066 1280 f6c8 1280 15af 1800
00000170: ca9a 1700 da77 2100 f6a6 0b00 5ac5 2700
00000180: 834f 0f00 4afb 0e80 d33d 0280 81cd 2880
00000190: d90d 0500 2b1f 0b00 12c3 2b00 dcff 1b00
000001a0: 118a 1780 04f7 1080 30f9 1e80 2fde 2380
000001b0: 643c 1d00 9c30 2080 0f6f 1700 8a5b 0a80
000001c0: 5cda 0500 cb8f 2500 da95 2380 0cd6 2400
000001d0: f33a 2400 16ba 1d80 28ab 3200 4ccc 0d00
000001e0: 2c73 1600 f901 1480 3010 1580 7ab2 0a80
000001f0: 6fe3 2280 e83a 1100 bb73 2c80 7e06 2d00
00000200: 69fa 1900 107f 3000 4ee7 1f80 6630 3200
00000210: f92b 1780 db5e 2180 65c0 3600 c9cb 2300
00000220: 1f7e 1480 215a 0300 c70d 2080 91ef 1100
00000230: b995 1080 9b2d 0380 c657 2300 5d93 0880
00000240: 5182 2e00 6767 0380 69af 0900 5607 2180
00000250: ab4c 2980 7e74 0400 4c3e 2600 23b3 1b80
00000260: 6f87 0180 4e6c 1f80 067f 2180 9afc 0880
00000270: 8b89 0780 e534 2100 8f1f 2500 8d8b 1b00
00000280: 3b18 2d00 c47b 0700 f16f 0c80 e290 2d00
00000290: 968b 0900 ed82 2880 4f7a 0380 227a 1c80
000002a0: e97b 2000 4c61 0c00 bcd4 2880 c784 2f80
000002b0: e7a4 2300 5fd8 0400 2f8c 0200 c87a 0d80
000002c0: 8cb1 0000 b135 1c00 6a06 2200 8a0c 0180
000002d0: 99d3 1400 7b03 2a80 2946 0900 0240 1c80
000002e0: 5696 1200 8498 2680 5645 1c80 f7be 2380
000002f0: 22fa 2b80 a13e 0e00 07d8 1d00 27b1 1a80
00000300: 9e5d 0a00 dbc4 2680 fb83 0780 ca3a 2500
00000310: cac6 2300 bab4 0a80 1d29 0400 ab6e 0e00
00000320: 8d8b 0f80 4b64 1200 f8dd 0700 7339 0180
00000330: a669 1580 c09a 0c00 4688 3000 4398 3200
00000340: 8f54 1300 8545 0800 69ef 1d80 e1bb 1600
00000350: 37ee 0680 43bb 2400 41fd 1e80 2004 1d80
00000360: 23bb 2580 fbe7 2400 832a 1080 cd4b 2280
00000370: 2004 1900 ddfa 1f00 bd35 0d80 4f92 1300
00000380: 47b2 0f00 0562 2000 8b18 2c80 843f 0300
00000390: de8b 1780 daea 0680 b43b 0b80 cae1 2f80
000003a0: 1036 2b00 77bf 0d00 18d9 2680 1077 1600
000003b0: 100e 1a80 1dde 2680 16dc 1a00 a626 0c00
000003c0: 4f4a 1480 bcba 3680 d202 1a00 7b7f 2f80
000003d0: abdb 1200 350f 0180 89d6 1d00 4dfd 1780
000003e0: 6c35 1080 da5f 1a80 f95c 1e00 4bb6 3280
000003f0: 0986 1180 fab6 1400 3996 2680 e31b 2280

gnnModel.init_atom_embedding.embed_list.1.weight f4 [22, 64]
1.885898e-39 -1.14632e-40 3.262734e-39 7.6284e-41 -1.322505e-39 1.7023e-41 -1.389564e-39 1.456571e-39
-1.93721e-39 2.359603e-39 1.580518e-39 2.42122e-39 -3.69992e-40 -1.121168e-39 3.671901e-39 9.21446e-40
-1.129648e-39 -1.515133e-39 -3.281865e-39 -3.854686e-39 -3.840698e-39 4.79896e-39 1.296763e-39 -1.142329e-39
-2.109719e-39 -3.194888e-39 -2.45269e-39 -2.411148e-39 -2.347887e-39 1.160875e-39 1.710911e-39 8.49299e-40
-3.9874e-40 -1.16882e-40 -1.99015e-39 -7.49853e-40 1.283183e-39 3.430695e-39 -2.812584e-39 -4.350013e-39
-2.504846e-39 1.295426e-39 -3.240752e-39 3.060441e-39 2.207509e-39 -4.38417e-40 -3.262855e-39 -2.672933e-39
-8.52264e-40 2.369444e-39 1.685258e-39 -6.45861e-40 3.762238e-39 -4.589754e-39 -4.12728e-39 -6.53211e-40
1.079964e-39 -2.376707e-39 -2.973396e-39 2.958567e-39 -1.559337e-39 -3.221626e-39 -1.169512e-39 2.696074e-39
-2.662253e-39 -2.961245e-39 -1.036563e-39 -3.139974e-39 3.567534e-39 3.7143e-39 8.3828e-40 4.381779e-39
3.180827e-39 -2.562271e-39 2.226394e-39 -1.32519e-39 3.172817e-39 -1.084152e-39 3.053158e-39 1.247663e-39
3.385705e-39 2.948004e-39 3.223953e-39 -3.584215e-39 1.39948e-39 -2.336011e-39 2.071685e-39 1.51592e-40
1.689646e-39 4.510528e-39 -4.151822e-39 3.345237e-39 -1.981007e-39 3.296287e-39 1.129332e-39 1.43007e-39
9.084e-40 -1.10152e-40 -2.977602e-39 -1.45403e-40 3.187183e-39 -2.466421e-39 -1.001828e-39 1.584712e-39
4.60123e-40 2.298289e-39 -1.326535e-39 -2.294743e-39 3.027717e-39 -7.63048e-40 -3.033632e-39 -2.348744e-39
1.075642e-39 -1.162615e-39 -2.364516e-39 -6.4925e-40 2.135345e-39 -2.879359e-39 -4.342325e-39 -7.92074e-40
5.99885e-40 3.451971e-39 9.53016e-40 2.06794e-39 1.733786e-39 8.9424e-41 1.08895e-39 -4.071663e-39
2.40673e-39 -4.662142e-39 -2.170768e-39 -2.145536e-39 5.48879e-40 1.460309e-39 -1.439788e-39 -1.476683e-39
-4.839436e-39 1.064093e-39 -2.031517e-39 2.586505e-39 2.68395e-39 -1.217098e-39 2.70896e-40 -1.926261e-39
2.412777e-39 3.274018e-39 4.427809e-39 -3.625305e-39 -2.163538e-39 -3.156023e-39 1.928728e-39 1.890604e-39
2.095621e-39 -5.23399e-40 1.563998e-39 2.249364e-39 -2.879858e-39 1.38793e-39 1.27754e-40 -2.89257e-39
8.70751e-40 4.151385e-39 3.159368e-39 1.574946e-39 -2.022179e-39 -1.22527e-39 -1.364477e-39 1.763056e-39
-2.132895e-39 1.561121e-39 -3.73459e-40 -1.978753e-39 -2.21522e-39 -1.828804e-39 -2.94495e-40 2.987176e-39
1.170938e-39 -3.657448e-39 -3.1279e-39 -1.747596e-39 1.654461e-39 1.202216e-39 -2.281003e-39 -2.958267e-39
-2.501204e-39 1.582139e-39 1.903185e-39 4.269567e-39 -3.295813e-39 2.180126e-39 2.318277e-39 2.734302e-39
2.689111e-39 1.409636e-39 -4.700821e-39 6.898e-40 -2.278053e-39 -3.990504e-39 3.22383e-40 -5.69018e-40
-1.24963e-39 -4.210341e-39 3.610895e-39 -1.953497e-39 -2.87552e-39 -3.758463e-39 3.763983e-39 -5.43865e-40
-3.602021e-39 -6.44764e-40 -1.802182e-39 6.97386e-40 -2.824917e-39 -9.93645e-40 -3.73774e-40 -1.423599e-39
-1.28302e-39 -4.224971e-39 3.454195e-39 7.93369e-40 -2.219961e-39 -8.0032e-41 -3.6363e-40 3.96953e-39
-1.15657e-39 -4.294669e-39 -2.44627e-39 6.1738e-41 1.61707e-40 1.859288e-39 -3.280888e-39 4.471168e-39
2.521107e-39 3.918022e-39 -3.55457e-39 -3.625498e-39 -2.612068e-39 1.320373e-39 2.053513e-39 1.020176e-39
-2.448741e-39 -3.705448e-39 4.638009e-39 -4.181962e-39 -6.5147e-40 -3.241796e-39 -3.38734e-40 7.89071e-40
-4.219987e-39 -4.90509e-40 3.759794e-39 3.833843e-39 2.07269e-40 -3.73305e-39 -2.119771e-39 1.574248e-39
00000000: 1e89 1400 8c3f 0180 2d87 2300 a6d4 0000
00000010: 9b66 0e80 742f 0000 8a21 0f80 54dc 0f00
00000020: 2718 1580 9db1 1900 d735 1100 605d 1a00
00000030: 6307 0480 5c35 0c80 c4fb 2700 9e08 0a00
00000040: 004d 0c80 937f 1080 81bc 2380 4cf9 2980
00000050: 4ed2 2980 8c41 3400 d91e 0e00 5970 0c80
00000060: 0af9 1680 0cca 2280 1ab5 1a80 4d41 1a80
00000070: f490 1980 0ca4 0c00 53a1 1200 803f 0900
00000080: 8657 0480 d245 0180 baab 1580 492a 0880
00000090: fef8 0d00 625b 2500 57a0 1e80 115e 2f80
000000a0: 7e46 1b80 1f1b 0e00 e649 2380 4453 2100
000000b0: a309 1800 21c6 0480 8387 2380 0d1b 1d80
000000c0: c447 0980 0ccd 1900 d059 1200 6608 0780
000000d0: 97f7 2800 5efa 3180 2df1 2c80 e31c 0780
000000e0: 80c2 0b00 4be1 1980 9e60 2080 4837 2000
000000f0: ccfa 1080 9514 2380 20bc 0c80 8f5b 1d00
00000100: 47fd 1c80 bf3e 2080 8449 0b80 f830 2280
00000110: d5d8 2600 f571 2800 c920 0900 9eb6 2f00
00000120: daa2 2200 92e6 1b80 483e 1800 176e 0e80
00000130: 868c 2200 2dce 0b80 f63e 2100 fa95 0d00
00000140: f8dd 2400 d619 2000 121b 2300 5507 2780
00000150: 2e3d 0f00 d96f 1980 048f 1600 94a6 0100
00000160: 0c66 1200 841d 3100 9735 2d80 296d 2400
00000170: 3e92 1580 b5e4 2300 1e4c 0c00 7492 0f00
00000180: 40e4 0900 0f33 0180 586c 2080 5395 0180
00000190: 92b4 2200 61db 1a80 b0e8 0a80 8841 1100
000001a0: a302 0500 b206 1900 d771 0e80 cffc 1880
000001b0: 0bf8 2000 114f 0880 8808 2180 5893 1980
000001c0: 74b6 0b00 e6a8 0c80 4fbf 1980 d811 0780
000001d0: 7940 1700 7b5a 1f80 a348 2f80 fb9f 0880
000001e0: 3c88 0600 b196 2500 9f60 0a00 9384 1600
000001f0: 17e1 1200 47f9 0000 8ddb 0b00 2456 2c80
00000200: fc34 1a00 28c4 3280 38a3 1780 e25c 1780
00000210: 0dfa 0500 bfe6 0f00 8bad 0f80 6414 1080
00000220: 61b2 3480 4296 0b00 0b1f 1680 202a 1c00
00000230: c339 1d00 c640 0d80 26f3 0200 a2f9 1480
00000240: d745 1a00 a1a6 2300 ee36 3000 e079 2780
00000250: 108f 1780 b55d 2280 8200 1500 3c96 1400
00000260: bdd1 1600 06b3 0580 ca07 1100 507e 1800
00000270: df5b 1f80 fc1c 0f00 2064 0100 4f7f 1f80
00000280: 4d7b 0900 5f34 2d00 0867 2200 4f26 1100
00000290: 0305 1680 8e57 0d80 9bdb 0e80 af32 1300
000002a0: a539 1780 c5ff 1000 0d11 0480 f58b 1580
000002b0: 221f 1880 f6e9 1380 ef34 0380 0887 2000
000002c0: 19c0 0c00 7ad3 2780 500f 2280 9607 1380
000002d0: f703 1200 4a17 0d00 82d6 1880 7236 2080
000002e0: 573c 1b80 5c3a 1100 4eb9 1400 d17d 2e00
000002f0: 63e3 2380 4ebd 1700 6a3e 1900 1fc6 1d00
00000300: 2648 1d00 7e59 0f00 fa2f 3380 e282 0700
00000310: 49ce 1880 e773 2b80 ac82 0300 3132 0680
00000320: 769b 0d80 b8d8 2d80 b551 2700 8e45 1580
00000330: c84f 1f80 11ed 2880 74fc 2800 13ec 0580
00000340: f838 2780 5705 0780 c09f 1380 0798 0700
00000350: b8c2 1e80 e1d1 0a80 ee11 0480 6a80 0f80
00000360: 8af8 0d80 8001 2e80 e49c 2500 97a3 0800
00000370: 592c 1880 19df 0080 a7f5 0380 6f39 2b00
00000380: 0c98 0c80 cac3 2e80 35a3 1a80 1aac 0000
00000390: c6c2 0100 f03e 1400 c8b9 2380 ccaf 3000
000003a0: d273 1b00 daa9 2a00 b2b4 2680 6a7a 2780
000003b0: 6271 1c80 aa60 0e00 5c5c 1600 d61b 0b00
000003c0: 18aa 1a80 4859 2880 e280 3200 9c89 2d80
000003d0: 0918 0780 cf4c 2380 41b0 0380 9c97 0800
000003e0: 9bf3 2d80 5757 0580 c7f0 2800 32bf 2900
000003f0: c841 0200 39a6 2880 0f15 1780 5d24 1100

gnnModel.init_atom_embedding.embed_list.2.weight f4 [17, 64]
-3.33173e-40 -3.626212e-39 4.34645e-40 -2.977787e-39 -3.06749e-39 4.069694e-39 3.028415e-39 1.72976e-39
1.993689e-39 -4.581743e-39 -4.62518e-40 -2.881689e-39 -2.032512e-39 1.438626e-39 1.082409e-39 -4.689932e-39
-1.32399e-39 -1.417775e-39 -1.61826e-39 -7.81974e-40 -1.771072e-39 5.20553e-40 2.994454e-39 -4.060974e-39
-2.30288e-40 -2.752666e-39 1.4186e-39 3.931236e-39 -3.437003e-39 -1.612002e-39 -8.5522e-40 -2.836888e-39
-3.77582e-39 -1.433422e-39 -2.26675e-40 -3.525546e-39 2.392445e-39 4.023438e-39 4.554779e-39 1.699503e-39
1.762129e-39 4.891772e-39 -2.411534e-39 -5.157873e-39 -3.022936e-39 -2.31465e-40 -2.945493e-39 -7.7846e-41
2.67099e-39 -3.379154e-39 -3.613591e-39 -5.01976e-40 -2.375502e-39 3.314846e-39 2.803595e-39 -6.6063e-40
3.244304e-39 5.59317e-40 -2.498868e-39 -2.611737e-39 1.047448e-39 -2.458406e-39 -1.896891e-39 3.507809e-39
-1.1305072 -1.1767174 0.017561616 0.0047370284 -0.696131 -0.3956677 -0.08305331 -0.15221114
-0.24226701 -1.9315369 -0.39432144 -0.6692129 0.4223076 -0.5412716 0.32865527 0.4090536
-1.1807326 0.024677863 -0.41913024 0.7350234 0.08904347 1.1540855 0.4261773 1.4962462
1.161353 -0.019543536 0.39531752 -0.29527894 1.7002074 1.5177834 1.6172792 0.1216518
-0.81975156 0.587537 0.8658264 -0.12143294 0.20778969 -0.6890752 -0.796186 1.6165605
1.5164963 0.67778885 0.52347136 -0.120519884 0.19610035 -0.45358542 -0.6685433 -0.21764372
0.4508579 -0.7184657 -0.06116465 -0.26146206 -1.0751468 -0.635374 -1.0695013 -0.0837309
0.36327082 -0.48510683 1.3972421 0.2629728 0.41928554 1.5102258 1.028073 0.066199124
1.0324751 0.2057088 0.7359076 0.6560674 0.008165613 -0.90845525 -0.021293709 -0.34578183
1.5294715 0.8915368 0.85726905 -0.5902479 0.881361 0.853398 -1.1570771 -1.5823846
-0.2019717 0.86827123 -0.51919335 -1.1073613 0.88016033 -0.1735374 -0.90099686 0.13812786
-1.0905002 0.937281 0.8494428 2.1736588 0.18288578 -1.1111463 0.63642913 0.14459409
1.4951962 1.2520305 0.0350083 0.78866315 -0.35057515 0.51288915 0.5300393 0.03563111
-0.45540422 -0.07378745 -0.14785677 1.5328681 1.2879453 -0.48314837 0.3336526 0.11577295
0.47520208 0.14177577 -0.86186457 0.08847034 0.026008964 -0.1947343 0.48900536 0.3748067
0.1840949 0.17039436 1.065433 0.23694387 -2.2867055 -0.23260522 -0.20455079 -0.33358562
0.537185 0.38116002 -0.01536 -0.31764793 0.37422365 0.51693946 0.09526277 0.12498253
-0.80175656 0.44617072 -0.6067794 0.42725596 -0.47697473 0.27816296 0.31205034 0.09219468
0.8914726 -0.71837205 0.4475164 -0.12839244 -0.40152887 -0.32794854 0.21514645 -0.84541947
-0.3305864 -0.0411532 -0.83556175 -0.8154564 -0.9233197 -0.3583938 -0.5099864 0.30433634
-0.6468934 -0.54863757 -0.075129345 -0.3007645 -0.20694245 -0.08362578 0.105465144 -0.79754454
-0.3233299 -0.27942172 -0.4054406 -0.48661226 -0.2643329 0.3403646 0.32821998 -0.24571496
-0.25618866 0.31725433 0.42521533 -0.13252756 0.3082089 0.2522719 0.152042 0.09622135
-0.3490506 0.1668067 -1.1045853 -0.026866553 0.40846688 -0.7053492 -0.7279494 -0.33908042
00000000: c0a0 0380 677c 2780 9dbb 0400 dc6c 2080
00000010: ea66 2180 a750 2c00 fdf9 2000 ded5 1200
00000020: 98b5 1500 09e4 3180 5009 0580 fa60 1f80
00000030: d121 1680 4eaa 0f00 51c9 0b00 9f11 3380
00000040: bf6a 0e80 2e70 0f80 0d9f 1180 d383 0880
00000050: 0749 1380 17ab 0500 529b 2000 5838 2c80
00000060: f381 0280 50f9 1d80 7b72 0f00 b0ce 2a00
00000070: f76c 2580 9b8d 1180 0150 0980 17e4 1e80
00000080: 731d 2980 cc9b 0f80 e177 0280 ca63 2680
00000090: 2a0d 1a00 b5cf 2b00 df98 3100 8681 1200
000000a0: 1930 1300 4544 3500 6042 1a80 0d2a 3880
000000b0: b7ea 2080 3b85 0280 d612 2080 01d9 0080
000000c0: a215 1d00 b5cb 2480 3959 2780 4e77 0580
000000d0: efdd 1980 7118 2400 4887 1e00 9131 0780
000000e0: cd53 2300 2617 0600 d435 1b80 7670 1c80
000000f0: dc67 0b00 09c5 1a80 c3a7 1480 5832 2600
00000100: 76b4 90bf ad9e 96bf 61dd 8f3c 1339 9b3b
00000110: a435 32bf f594 cabe db17 aabd 3ddd 1bbe
00000120: d814 78be 9a3c f7bf 80e4 c9be 8951 2bbf
00000130: b438 d83e c790 0abf 8145 a83e 796f d13e
00000140: 3f22 97bf 3b29 ca3c 3d98 d6be 7e2a 3c3f
00000150: 6c5c b63d 13b9 933f e933 da3e ff84 bf3f
00000160: 37a7 943f c419 a0bc 0f67 ca3e cd2e 97be
00000170: 65a0 d93f ba46 c23f 0103 cf3f 9424 f93d
00000180: 3ddb 51bf d368 163f cda6 5d3f d5b1 f8bd
00000190: d2c6 543e 3b67 30bf d8d2 4bbf 74eb ce3f
000001a0: 8d1c c23f 9283 2d3f 3802 063f 21d3 f6bd
000001b0: 88ce 483e 593c e8be a725 2bbf ffdd 5ebe
000001c0: d9d6 e63e 5eed 37bf c987 7abd 5bde 85be
000001d0: 699e 89bf dfa7 22bf 6be5 88bf 1b7b abbd
000001e0: a2fe b93e ec5f f8be d4d8 b23f 5fa4 863e
000001f0: 98ac d63e 144f c13f e597 833f 6893 873d
00000200: 2528 843f 54a5 523e 7164 3c3f 08f4 273f
00000210: 10c9 053c 8690 68bf 2570 aebc 510a b1be
00000220: b9c5 c33f c13b 643f fc75 5b3f 7d1a 17bf
00000230: e0a0 613f 4b78 5a3f 1a1b 94bf 948b cabf
00000240: abd1 4ebe 0647 5e3f dbe9 04bf 04be 8dbf
00000250: 3052 613f cab3 31be bba7 66bf 6471 0d3e
00000260: 8395 8bbf a6f1 6f3f 1575 593f 3a1d 0b40
00000270: 6946 3b3e 0b3a 8ebf 05ed 223f 7910 143e
00000280: 9762 bf3f 8942 a03f dd64 0f3d d4e5 493f
00000290: 967e b3be b44c 033f a8b0 073f edf1 113d
000002a0: be2a e9be e01d 97bd c467 17be 0635 c43f
000002b0: 64db a43f 395f f7be 83d4 aa3e 5e1a ed3d
000002c0: b04d f33e ab2d 113e 28a3 5cbf f02f b53d
000002d0: c010 d53c 6e68 47be e95e fa3e aae6 bf3e
000002e0: 6083 3c3e dc7b 2e3e 1c60 883f 6aa1 723e
000002f0: 6259 12c0 1030 6ebe c375 51be bccb aabe
00000300: f584 093f 6827 c33e 82a8 7bbc c0a2 a2be
00000310: 3e9a bf3e 2556 043f 2119 c33d d7f6 ff3d
00000320: eb3f 4dbf 7d70 e43e e555 1bbf 4bc1 da3e
00000330: 0836 f4be 606b 8e3e 10c5 9f3e 90d0 bc3d
00000340: 8c37 643f 3be7 37bf df20 e53e 4f79 03be
00000350: 3195 cdbe dfe8 a7be 5a4f 5c3e 696d 58bf
00000360: 9f42 a9be 4290 28bd 60e7 55bf c0c1 50bf
00000370: ae5e 6cbf 647f b7be 788e 02bf f9d1 9b3e
00000380: ce9a 25bf 8373 0cbf 6add 99bd cefd 99be
00000390: b9e8 53be fe43 abbd 1cfe d73d e12b 4cbf
000003a0: 7f8b a5be 5d10 8fbe e995 cfbe 3e25 f9be
000003b0: a456 87be 4544 ae3e 730c a83e b49c 7bbe
000003c0: 292b 83be 296f a23e d3b5 d93e 4eb5 07be
000003d0: 8fcd 9d3e c829 813e e6b0 1b3e b30f c53d
000003e0: c3b6 b2be 60cf 2a3e 0d63 8dbf 3f17 dcbc
000003f0: 9222 d13e c491 34bf e45a 3abf f39b adbe

gnnModel.init_atom_embedding.embed_list.3.weight f4 [9, 64]
-0.2640621 -0.088942245 0.08851425 -0.023767577 -0.28702962 -0.0123274 -0.09290989 0.022620164
0.23686643 -0.32433748 0.09720042 0.09705109 -0.07702171 -0.025350878 -0.003197951 0.13854168
0.20811571 -0.05387678 -0.18746601 0.11692125 -0.05443166 0.21139348 0.10536075 0.16378826
-0.013136304 -0.14685234 -0.054112405 0.121979415 -0.16048554 0.21712139 0.023807094 0.05350648
0.060785163 -0.01500598 -0.1359684 -0.32372862 -0.06873064 -0.16839309 -0.27853686 0.21113816
-0.027443979 0.13862358 -0.023736062 -0.0809576 -0.06736047 0.07279063 -0.097500995 0.02439972
0.20525812 0.12634148 0.24115404 -0.19449969 -0.3797724 0.045825284 -0.012348011 -0.05197989
-0.08317662 -0.2501367 -0.019396476 0.08228092 -0.09142351 0.14384143 0.23956062 -0.29777348
3.201416e-39 -1.174245e-39 -2.990985e-39 -1.527155e-39 -8.2655e-40 -2.031581e-39 -2.068779e-39 7.01114e-40
2.50408e-39 -2.141335e-39 -5.148897e-39 -5.2198e-41 -3.00921e-39 -6.90654e-40 -4.273246e-39 2.491133e-39
7.7622e-41 -3.257147e-39 1.142507e-39 1.920488e-39 -1.968082e-39 -1.536342e-39 1.89943e-40 1.666112e-39
-4.442904e-39 2.832903e-39 3.416444e-39 -2.279697e-39 2.724917e-39 -9.4106e-40 -3.308086e-39 1.293288e-39
-2.291145e-39 -1.681745e-39 3.774886e-39 2.600813e-39 -9.22965e-40 -1.072e-42 -1.3791e-39 2.15134e-39
-7.43158e-40 2.651928e-39 -1.71386e-40 -4.145833e-39 -1.66757e-39 2.253387e-39 -3.437026e-39 -1.053627e-39
4.013163e-39 -1.325525e-39 1.524307e-39 -7.09301e-40 1.537407e-39 1.160019e-39 -4.2829e-39 -2.394884e-39
1.325717e-39 3.145447e-39 -4.14218e-39 1.965631e-39 6.16187e-40 -8.8416e-40 3.680576e-39 1.11129e-39
3.038682e-39 -9.42869e-40 4.20275e-40 1.872957e-39 1.338931e-39 4.63798e-40 -1.947995e-39 -8.30402e-40
-3.008703e-39 2.144508e-39 2.230946e-39 -3.076799e-39 1.706064e-39 -3.54665e-39 -2.74498e-39 1.441174e-39
-1.084926e-39 -8.62244e-40 1.320345e-39 -2.634457e-39 2.087995e-39 9.66687e-40 -1.29088e-40 1.08936e-40
4.09369e-39 -6.29493e-40 4.503024e-39 1.713802e-39 2.192498e-39 -9.6682e-40 -3.204913e-39 5.8869e-40
-2.156525e-39 -1.58259e-39 1.361916e-39 -3.9163e-40 -2.79269e-39 -3.497491e-39 1.530745e-39 4.003797e-39
2.252356e-39 2.43457e-39 -2.148307e-39 -5.44427e-40 -1.927434e-39 8.79563e-40 -1.010553e-39 2.408508e-39
9.45017e-40 1.482843e-39 -3.692426e-39 3.172608e-39 2.799288e-39 -4.173591e-39 -6.09357e-40 8.2751e-40
1.678754e-39 -6.56035e-40 -2.007276e-39 -7.69679e-40 -2.794237e-39 8.69591e-40 2.68386e-40 4.97368e-40
-9.40805e-40 -1.195543e-39 1.112485e-39 -7.87905e-40 -2.950777e-39 3.4098e-39 2.646226e-39 1.397727e-39
1.165048e-39 -3.228638e-39 -3.581e-41 -5.82207e-40 -1.227076e-39 -2.150285e-39 1.349177e-39 1.154702e-39
-3.376628e-39 -8.36247e-40 -3.817861e-39 -2.283413e-39 -3.0016e-41 1.253504e-39 3.70864e-39 -1.532304e-39
-1.689931e-39 2.767391e-39 -5.35161e-40 -1.411556e-39 -4.344541e-39 -1.480917e-39 -1.630614e-39 9.12e-41
-1.709178e-39 1.105154e-39 -1.035132e-39 -5.83851e-40 4.8791e-40 1.302175e-39 6.6367e-41 -1.782404e-39
-5.576e-41 -2.89199e-40 6.90673e-40 4.19714e-39 1.406301e-39 -8.5024e-41 -1.349553e-39 -1.111961e-39
6.58954e-40 9.86859e-40 -4.638148e-39 -7.0659e-41 -1.442038e-39 -1.61104e-39 -4.478e-41 -1.143825e-39
2.881661e-39 -1.4449e-40 -2.095385e-39 2.108653e-39 1.169857e-39 -2.47073e-39 2.327358e-39 3.027633e-39
00000000: 2633 87be 5a27 b6bd f646 b53d 39b4 c2bc
00000010: 8cf5 92be ddf8 49bc 8a47 bebd ec4d b93c
00000020: 1d8d 723e 900f a6be 0411 c73d b9c2 c63d
00000030: 8fbd 9dbd a5ac cfbc b794 51bb dfdd 0d3e
00000040: 491c 553e e6ad 5cbd 17f7 3fbe 6974 ef3d
00000050: bbf3 5ebd 8877 583e 60c7 d73d 1cb8 273e
00000060: a739 57bc 7660 16be f8a4 5dbd 58d0 f93d
00000070: 5256 24be 1255 5e3e 1807 c33c 9c29 5b3d
00000080: ddf9 783d a4db 75bc 4d3b 0bbe c2bf a5be
00000090: a6c2 8cbd 3d6f 2cbe 629c 8ebe 9a34 583e
000000a0: 32d2 e0bc 57f3 0d3e 2172 c2bc 19cd a5bd
000000b0: 49f4 89bd 4113 953d 9aae c7bd ece1 c73c
000000c0: 2f2f 523e a95f 013e 16f1 763e ed2a 47be
000000d0: 8771 c2be 4bb3 3b3d 504f 4abc dde8 54bd
000000e0: 8158 aabd eb11 80be 5ce5 9ebc e682 a83d
000000f0: 403c bbbd 2b4b 133e 614f 753e c475 98be
00000100: 3fdc 2200 51c9 0c80 a691 2080 16a1 1080
00000110: 1600 0980 391f 1680 ea86 1680 6ca2 0700
00000120: 5b44 1b00 2c51 1780 0811 3880 8291 0080
00000130: 74c4 2080 4385 0780 1288 2e80 4420 1b00
00000140: 61d8 0000 9a77 2380 d870 0c00 8ae9 1400
00000150: 366e 1580 b2ba 1080 7c11 0200 7124 1200
00000160: 0261 3080 fbd8 1e00 a833 2500 ded2 1880
00000170: f6ab 1d00 4b3f 0a80 9905 2480 2915 0e00
00000180: c8f2 1880 0550 1280 d91a 2900 0252 1c00
00000190: da0c 0a80 fd02 0080 5f04 0f80 106d 1700
000001a0: 9f17 0880 7fe0 1c00 c1dd 0180 e524 2d80
000001b0: 8228 1280 8789 1800 086d 2580 1579 0b80
000001c0: 11b3 2b00 066f 0e80 2699 1000 3eb9 0780
000001d0: aabd 1000 a9a1 0c00 fca2 2e80 f613 1a80
000001e0: 8f6f 0e00 3a40 2200 b61a 2d80 6167 1500
000001f0: aeb5 0600 aea0 0980 f313 2800 d319 0c00
00000200: 9c16 2100 5644 0a80 8e93 0400 0b65 1400
00000210: 6594 0e00 e10c 0500 3836 1580 d30a 0980
00000220: 0ac3 2080 045a 1700 f84a 1800 dd80 2180
00000230: d093 1200 9e9e 2680 e3e3 1d80 68b1 0f00
00000240: 55d0 0b80 9663 0980 9660 0e00 cbaf 1c80
00000250: 7bbc 1600 bb86 0a00 d867 0180 ab2f 0100
00000260: 8b93 2c00 c5da 0680 9908 3100 62a9 1200
00000270: cbdf 1700 1a87 0a80 fee5 2280 0769 0600
00000280: 847b 1780 9e3b 1180 78d4 0e00 b543 0480
00000290: e268 1e80 9515 2680 18ab 1000 f598 2b00
000002a0: a786 1800 9782 1a00 9b64 1780 a4ed 0580
000002b0: e7fc 1480 dd93 0900 0301 0b80 f139 1a00
000002c0: 534a 0a00 9025 1000 fb34 2880 f18b 2200
000002d0: 477b 1e00 4672 2d80 a4a2 0680 c302 0900
000002e0: af47 1200 c224 0780 78db 1580 8d61 0880
000002f0: 326d 1e80 1178 0900 27ec 0200 766a 0500
00000300: 953e 0a80 b004 0d80 281d 0c00 5c94 0880
00000310: 9121 2080 2321 2500 9ad0 1c00 4b38 0f00
00000320: aeaf 0c00 2128 2380 d363 0080 f556 0680
00000330: 975c 0d80 1f6a 1780 f5b0 0e00 d792 0c00
00000340: aac4 2480 1e1b 0980 a592 2980 3add 1880
00000350: ac53 0080 42a6 0d00 2e62 2800 71af 1080
00000360: d766 1280 5c22 1e00 d0d3 0580 d85e 0f80
00000370: d04e 2f80 3220 1080 7dc1 1180 3afe 0000
00000380: 7e9c 1280 b808 0c00 8745 0b80 8a5b 0680
00000390: 1850 0500 ef2d 0e00 01b9 0000 9e68 1380
000003a0: 709b 0080 2b26 0380 5185 0700 ebb3 2d00
000003b0: 3250 0f00 03ed 0080 01b2 0e80 b21b 0c80
000003c0: e52c 0700 f6be 0a00 4581 3280 f8c4 0080
000003d0: d1b3 0f80 ed8a 1180 d47c 0080 8574 0c80
000003e0: e660 1f00 c892 0180 15d1 1680 11f6 1600
000003f0: 16bd 0c00 64e7 1a80 ba57 1900 cff7 2000

gnnModel.init_atom_embedding.embed_list.4.weight f4 [15, 64]
0.082123995 0.2987943 -0.35754526 -0.120300315 0.39248332 -0.069784895 0.80636436 -0.4273367
-0.32105434 -0.31744155 -0.005062072 -0.40872434 -0.5263049 -0.24658504 0.0898463 -1.0995497
0.5312927 -0.51619047 -1.1749334 -0.28946567 -0.028161786 -0.2945659 0.34766698 -0.4835048
-0.03442944 0.08748607 0.3977967 0.5857794 0.33484378 0.11932599 -0.20946985 -0.16925517
-0.6588739 -0.21484612 -0.32033947 -0.30294994 -0.38662428 0.005005551 0.24561535 -0.38225168
0.040277373 -0.21593362 -0.56100714 -0.58598566 -0.8791047 -0.46658522 0.31359908 0.32815805
-0.060230017 0.63572377 -0.23987252 0.037083413 0.7604994 0.72222424 -0.29849944 0.2249812
-0.11915745 -0.20508905 -0.7383228 -0.03806195 0.22618777 -0.42400172 0.20171037 -0.0138566885
-0.1368871 -1.062977 0.326889 0.1780219 -0.2061315 0.013558685 -0.5360138 0.21138394
0.22483736 0.11450398 -0.062909275 0.5484707 0.6758343 -0.2782105 0.492661 1.7283294
-0.47146833 0.092429556 0.8123321 -0.21021126 -0.14635105 0.18820876 -0.92786086 0.8990242
0.45273793 0.43358988 -0.26238117 -1.4927753 -0.18547814 0.118021846 0.9423961 -0.13873562
-0.89431274 0.54251593 0.029994773 0.04487202 0.14153524 0.35039055 0.018202472 0.32493117
0.23465185 0.1514253 0.55506796 8.457142e-05 0.17402449 0.96611345 -0.6020586 0.13834961
-0.18435577 -0.74657536 -0.03987768 -0.27757224 -1.0551789 -0.2992802 -0.48307225 0.018794412
0.037320465 0.2777283 0.5442682 0.03661825 -0.5063267 0.28544617 -0.5252565 0.026501236
-0.22813958 0.17272139 0.67270684 0.99962735 0.1711563 -0.52675796 -0.5494887 0.5424997
0.32266533 0.050745014 0.31604555 -0.51480645 -0.14881358 0.2671504 -0.95646936 -0.73662907
-0.42001122 0.5726904 0.15744492 0.32693878 0.22443573 0.10853396 0.046555575 -0.26272666
-1.027368 -0.49753076 -0.5420112 0.98459274 -0.22431773 -0.4069529 -0.07671095 0.07148791
2.2622173 0.62193084 0.7156969 -0.031376794 -0.78977084 -0.4509448 -0.075084195 -0.42273793
0.104854256 0.02004244 -0.7268177 0.26754546 0.90223974 -0.59108055 0.5290527 -0.48191062
0.9135923 -0.00016561938 -0.09962296 0.33372054 0.055123534 -0.7741551 0.50214136 0.1253757
0.24564938 -0.81685317 1.0777425 0.15096244 -1.5523492 0.5443589 0.6237465 -0.4611601
0.01665441 1.3810782 -0.7139477 -0.750197 -0.29309642 0.10985378 0.07115305 0.111253075
-0.9976218 0.53133434 0.16773856 -1.0549948 -0.021915821 1.1627712 0.7781891 -0.22097869
-0.07732403 0.30142537 -0.343822 0.13868164 -0.47652715 0.40873677 2.0220437 -0.59301805
0.12011833 0.13564093 0.3677487 2.2852046 -0.016877811 -0.368374 -0.5808392 0.41117537
1.4257177 -1.1093565 -0.12088156 0.08206229 0.5975401 0.2484545 -0.044396326 0.09338262
-0.32290548 0.26700607 -0.020241367 0.7137869 -0.03109958 -1.1747175 0.09500765 -0.5561822
-0.3423734 -0.13265388 -0.27360862 0.051778488 0.6834127 -0.36883926 1.072017 -0.18386911
-0.29506385 0.15734509 -0.18620856 0.0014299412 2.1916096 -0.25207788 0.03510917 0.9330442
00000000: a030 a83d 91fb 983e 2c10 b7be 0360 f6bd
00000010: 93f3 c83e 62eb 8ebd e56d 4e3f e0cb dabe
00000020: 3c61 a4be b387 a2be bddf a5bb 5144 d1be
00000030: ebbb 06bf ca80 7cbe 5601 b83d 0bbe 8cbf
00000040: cc02 083f 0f25 04bf 3864 96bf d834 94be
00000050: 8cb3 e6bc 57d1 96be 6801 b23e f18d f7be
00000060: e205 0dbd e62b b33d 02ac cb3e a4f5 153f
00000070: a570 ab3e 2f61 f43d 447f 56be 3a51 2dbe
00000080: f6ab 28bf 9f00 5cbe 8903 a4be 411c 9bbe
00000090: 9ef3 c5be 9b05 a43b 9782 7b3e 7eb6 c3be
000000a0: e3f9 243d b41d 5dbe 2a9e 0fbf 2803 16bf
000000b0: 010d 61bf 42e4 eebe 0f90 a03e 5504 a83e
000000c0: c0b3 76bd cbbe 223f 24a1 75be c7e4 173d
000000d0: 17b0 423f b0e3 383f ebd4 98be 7961 663e
000000e0: d208 f4bd dd02 52be b902 3dbf d9e6 1bbd
000000f0: c49d 673e c116 d9be 2a8d 4e3e 2a07 63bc
00000100: 222c 0cbe a10f 88bf ff5d a73e 5f4b 363e
00000110: 2314 53be 3f25 5e3c 3338 09bf 0875 583e
00000120: c43b 663e 1081 ea3d 94d6 80bd 9368 0c3f
00000130: 7a03 2d3f 9b71 8ebe 103e fc3e e639 dd3f
00000140: 4c64 f1be b54b bd3d fff4 4f3f 9f41 57be
00000150: 0ddd 15be ccb9 403e 4a88 6dbf 7326 663f
00000160: 44cd e73e 7eff dd3e d356 86be 4313 bfbf
00000170: fbed 3dbe 70b5 f13d df40 713f b610 0ebe
00000180: aef1 64bf 53e2 0a3f 99b7 f53c b9cb 373d
00000190: 9dee 103e 6466 b33e 5a1d 953c 615d a63e
000001a0: 9348 703e 3c0f 1b3e ef18 0e3f ef5b b138
000001b0: 7a33 323e 3653 773f 8320 1abf 85ab 0d3e
000001c0: c2c7 3cbe 901f 3fbf c756 23bd f31d 8ebe
000001d0: 1a10 87bf 413b 99be 3f55 f7be bdf6 993c
000001e0: 58dd 183d 6732 8e3e 2955 0b3f 05fd 153d
000001f0: a09e 01bf 0026 923e 3677 06bf 1f19 d93c
00000200: 6c9d 69be e0dd 303e 8436 2c3f 94e7 7f3f
00000210: 9943 2f3e 9cd9 06bf 4bab 0cbf 43e1 0a3f
00000220: 6434 a53e 01da 4f3d b9d0 a13e 5bca 03bf
00000230: 9662 18be f0c7 883e 2ddb 74bf b993 3cbf
00000240: b60b d7be d79b 123f 3e39 213e 8564 a73e
00000250: 7bd2 653e 0e47 de3d 0fb1 3e3d 1c84 86be
00000260: cb80 83bf 5abc febe 3fc1 0abf 450e 7c3f
00000270: 8cb3 65be 215c d0be a11a 9dbd 4168 923d
00000280: 2bc8 1040 dc36 1f3f e937 373f f484 00bd
00000290: 6c2e 4abf 3de2 e6be bec5 99bd 1b71 d8be
000002a0: d4bd d63d 0b30 a43c ba10 3abf b8fb 883e
000002b0: 2ff9 663f 0e51 17bf ff6f 073f fdbc f6be
000002c0: 2fe1 693f 1daa 2db9 1f07 ccbd 6bdd aa3e
000002d0: 37c9 613d 072f 46bf 568c 003f 7d62 003e
000002e0: 838b 7b3e 4a1d 51bf 77f3 893f e695 1a3e
000002f0: 61b3 c6bf 1b5b 0b3f daad 1f3f 2d1d ecbe
00000300: d46e 883c 2cc7 b03f 47c5 36bf e90c 40bf
00000310: bc10 96be 05fb e03d b1b8 913d a7d8 e33d
00000320: 2464 7fbf 8705 083f a8c3 2b3e 120a 87bf
00000330: cf88 b3bc b0d5 943f 6737 473f 3d48 62be
00000340: 105c 9ebd 6d54 9a3e 7009 b0be 8f02 0e3e
00000350: 5efb f3be f245 d13e 2a69 0140 08d0 17bf
00000360: 9900 f63d 75e5 0a3e 8f49 bc3e cb40 1240
00000370: 5643 8abc 849b bcbe e1b1 14bf 9485 d23e
00000380: eb7d b63f 65ff 8dbf c090 f7bd 4610 a83d
00000390: 63f8 183f db6a 7e3e ecd8 35bd 633f bf3d
000003a0: de53 a5be 05b5 883e 39d1 a5bc bdba 363f
000003b0: 8cc4 febc 255d 96bf 5f93 c23d f561 0ebf
000003c0: 914b afbe 6bd6 07be 6e16 8cbe ae15 543d
000003d0: 22f4 2e3f 80d8 bcbe da37 893f 2f48 3cbe
000003e0: 9c12 97be 121f 213e 75ad 3ebe dd6c bb3a
000003f0: 5543 0c40 5a10 81be a2ce 0f3d fcdb 6e3f

gnnModel.init_atom_embedding.embed_list.5.weight f4 [7, 64]
0.24518996 -0.04714476 0.081049256 -0.009367818 -0.009017349 -0.06872521 0.15488933 -0.10050456
0.09334042 0.6135219 -0.21977958 0.09336077 0.18716915 -0.03781268 -0.20510468 0.11563229
0.48171243 -0.3358748 0.16466756 -0.08472601 -0.08143144 0.064499415 -0.7556603 -0.28910115
-0.29903588 0.26875648 -0.49297878 -0.568684 -0.2521919 -0.11155212 -0.30506122 0.09110717
-0.81726444 -0.1344627 0.26357123 0.20456639 -0.0354901 0.19846383 0.32018068 -0.35674882
0.005118551 -0.10267479 0.33781627 0.4813545 -0.19239368 0.04274458 -0.10313322 -0.2911268
-0.3455596 -0.51833767 0.263007 -0.21974151 -0.10789147 -0.21905844 0.39946908 0.019761302
0.004953095 0.023843518 -0.30873144 -0.2929677 -0.15838395 -0.7647395 -0.42962447 -0.20598334
-0.43051583 0.12193027 -0.18060535 -0.05748813 0.042366635 0.24652894 -0.0006369549 -0.37776557
-0.018931968 -0.4945768 0.100129455 0.016473105 -0.13583662 -0.095493846 0.12091083 0.011244784
-0.63344574 0.22096899 0.08222658 0.02959762 0.3838647 0.18291552 1.3579394 0.2692423
0.23155636 -0.23536108 0.5637873 1.1643444 0.59893656 0.24736635 0.038202576 -0.056780543
1.3293399 0.6336195 0.04476535 -0.093415454 -0.00074838154 -0.5312235 -0.027039511 0.5829371
0.5046402 0.0019303438 -0.18089186 -0.2916865 0.024204582 -0.09448048 0.06898321 -0.1717448
0.4580882 0.45006338 0.03206506 0.077620514 0.052107435 -0.012017863 -0.5230113 0.06574825
0.3761617 -0.081616305 0.31999254 0.1603951 0.39132512 0.73773575 0.5959621 0.1472114
3.119178e-39 3.75038e-40 2.54749e-40 9.5964e-40 -2.570158e-39 -3.333559e-39 1.215572e-39 -4.193317e-39
-5.43774e-40 -1.033844e-39 2.04492e-39 6.11932e-40 1.57126e-39 7.69145e-40 -1.520487e-39 3.8555e-41
-4.60362e-40 3.721962e-39 -2.654659e-39 -2.675e-42 -3.662218e-39 1.050768e-39 -3.94594e-40 1.651863e-39
-2.68881e-39 1.523647e-39 1.19182e-39 -1.434117e-39 -1.903571e-39 -7.2817e-41 3.914159e-39 -1.314139e-39
-2.494514e-39 -1.418946e-39 4.214038e-39 3.08269e-39 9.23735e-40 3.129709e-39 -9.85522e-40 -6.6083e-40
3.106114e-39 9.98617e-40 -6.8036e-40 3.66463e-40 -2.396976e-39 -2.675135e-39 -3.49863e-39 1.512395e-39
4.257837e-39 2.371538e-39 -1.52764e-39 -1.068505e-39 3.287041e-39 -3.279403e-39 -1.425502e-39 1.302273e-39
1.974095e-39 -2.412311e-39 -3.111494e-39 9.17003e-40 4.09203e-39 5.2514e-40 -1.024091e-39 -3.643124e-39
3.588393e-39 -2.624394e-39 3.792195e-39 3.545617e-39 4.44277e-40 3.484651e-39 -3.505914e-39 -3.6225e-40
9.7572e-40 -3.141166e-39 -1.11716e-40 -1.433538e-39 -1.768991e-39 9.82756e-40 -1.39735e-40 9.30007e-40
-2.364744e-39 3.69493e-39 -2.20213e-39 2.708262e-39 4.461558e-39 -4.66339e-39 -1.767653e-39 -1.114237e-39
-3.194959e-39 -3.614407e-39 1.729903e-39 -7.46728e-40 -3.0701e-39 8.77245e-40 4.194765e-39 2.08671e-39
-1.889048e-39 2.525585e-39 -4.388942e-39 -1.077992e-39 -1.01125e-39 1.33165e-39 -2.636142e-39 -8.71246e-40
2.139851e-39 -3.000167e-39 -1.635165e-39 -1.300556e-39 2.122594e-39 -1.557343e-39 4.555603e-39 -2.10198e-40
-2.662637e-39 -2.616762e-39 -4.104074e-39 1.263562e-39 1.70665e-39 7.36747e-40 -1.78871e-39 -4.305218e-39
-3.86237e-40 6.67591e-40 -3.953307e-39 -2.69314e-40 1.396066e-39 -3.519538e-39 1.131621e-39 2.546875e-39
00000000: 1413 7b3e dd1a 41bd 27fd a53d 7a7b 19bc
00000010: 81bd 13bc cebf 8cbd 4f9b 1e3e 56d5 cdbd
00000020: 4329 bf3d c50f 1d3f e60d 61be ee33 bf3d
00000030: 45a9 3f3e 78e1 1abd f606 52be 9fd0 ec3d
00000040: 03a3 f63e c8f7 abbe 9d9e 283e d584 adbd
00000050: 87c5 a6bd 4518 843d f472 41bf 1105 94be
00000060: 3b1b 99be 739a 893e b767 fcbe 4695 11bf
00000070: 4c1f 81be 7075 e4bd fc30 9cbe 6596 ba3d
00000080: 3e38 51bf 97b0 09be cff2 863e da79 513e
00000090: 115e 11bd 1a3a 4b3e b9ee a33e c8a7 b6be
000000a0: 85b9 a73b 2947 d2bd 41f6 ac3e 1974 f63e
000000b0: d902 45be f114 2f3d 8237 d3bd 920e 95be
000000c0: 30ed b0be c7b1 04bf daa8 863e eb03 61be
000000d0: 34f6 dcbd db50 60be 3687 cc3e 74e2 a13c
000000e0: 934d a23b 7b53 c33c 0c12 9ebe ddff 95be
000000f0: 672f 22be f8c5 43bf bdf7 dbbe 4ced 52be
00000100: 926c dcbe 94b6 f93d 9cf0 38be ac78 6bbd
00000110: a388 2d3d 1572 7c3e 52f9 26ba 7d6a c1be
00000120: 3717 9bbc 2c39 fdbe ac10 cd3d 9bf2 863c
00000130: c118 0bbe 4792 c3bd 19a0 f73d 0b3c 383c
00000140: 8029 22bf b245 623e 6966 a83d b576 f23c
00000150: ea89 c43e 354e 3b3e f5d0 ad3f 20da 893e
00000160: 1c1d 6d3e 7f02 71be 5d54 103f 3d09 953f
00000170: e853 193f 9b4d 7d3e 4e7a 1c3d b792 68bd
00000180: cf27 aa3f e334 223f df5b 373d 9a50 bfbd
00000190: 092f 44ba 43fe 07bf f781 ddbc 5e3b 153f
000001a0: 1a30 013f 9703 fd3a b73b 39be ef57 95be
000001b0: b048 c63c fb7e c1bd 1247 8d3d dedd 2fbe
000001c0: 898a ea3e b56e e63e a756 033d 81f7 9e3d
000001d0: 9b6e 553d 92e6 44bc 12e4 05bf 05a7 863d
000001e0: 4498 c03e 7326 a7bd 10d6 a33e 9d3e 243e
000001f0: c45b c83e 40dc 3c3f f990 183f 96be 163e
00000200: 00f7 2100 7415 0400 23c6 0200 1673 0a00
00000210: 8efc 1b80 9b4c 2480 853c 0d00 43a9 2d80
00000220: d2eb 0580 f041 0b80 6844 1600 d1a9 0600
00000230: 091c 1100 1060 0800 808e 1080 7a6b 0000
00000240: 4d03 0580 5187 2800 1ce8 1c80 7507 0080
00000250: c6e0 2780 1d71 0b00 f84b 0480 b9fc 1100
00000260: 4f47 1d80 4f97 1000 4ffa 0c00 bc9d 0f80
00000270: 62ba 1480 fcca 0080 159f 2a00 494f 0e80
00000280: b129 1b80 7273 0f80 06e3 2d00 4991 2100
00000290: ff0e 0a00 5b14 2200 3cbb 0a80 2032 0780
000002a0: 95d2 2100 bddf 0a00 9168 0780 8dfd 0300
000002b0: cb19 1a80 3021 1d80 c218 2680 f177 1000
000002c0: 1e5d 2e00 e2d2 1900 70a2 1080 8fa2 0b80
000002d0: efca 2300 a4b5 2380 b885 0f80 352e 0e00
000002e0: f97e 1500 8b44 1a80 94e1 2180 3bfc 0900
000002f0: ea8e 2c00 e0b7 0500 c026 0b80 8cab 2780
00000300: fb12 2700 be93 1c80 194b 2900 bd9b 2600
00000310: 77d6 0400 caf1 2500 102d 2680 cef1 0380
00000320: e99f 0a00 4b34 2280 6b37 0180 1f9c 0f80
00000330: 3a43 1380 86b3 0a00 8685 0180 7b20 0a00
00000340: f2bf 1980 f63b 2800 a4fa 1780 887d 1d00
00000350: 0295 3000 a2c7 3280 7f3f 1380 0a22 0c80
00000360: 3fca 2280 7f5b 2780 44d6 1200 9321 0880
00000370: 316e 2180 678d 0900 4cad 2d00 e6b8 1600
00000380: e691 1480 4e80 1b00 96ca 2f80 01bd 0b80
00000390: f402 0b80 1980 0e00 7eb4 1c80 ae7c 0980
000003a0: 094d 1700 3fab 2080 2dce 1180 6c29 0e80
000003b0: ee1c 1700 3df5 1080 2b9b 3100 f249 0280
000003c0: 59fe 1c80 787e 1c80 7db0 2c80 4cc2 0d00
000003d0: 7295 1200 c005 0800 327a 1380 32e1 2e80
000003e0: ac34 0480 f944 0700 360c 2b80 bdee 0280
000003f0: aa33 0f00 0a53 2680 8052 0c00 a7bb 1b00

gnnModel.init_atom_embedding.embed_list.6.weight f4 [13, 64]
2.040169e-39 -2.441995e-39 -5.47197e-40 -2.009899e-39 3.982017e-39 3.529931e-39 -2.311433e-39 3.716876e-39
2.379367e-39 2.137284e-39 -1.222287e-39 -1.625044e-39 3.413193e-39 8.54082e-40 4.88563e-40 -1.64878e-40
3.962222e-39 9.1905e-40 -3.816853e-39 1.668237e-39 5.192437e-39 -2.186286e-39 -1.520601e-39 -4.09678e-39
-1.9257e-41 -1.288927e-39 1.275808e-39 2.87257e-39 -1.441101e-39 4.042087e-39 1.383426e-39 3.094506e-39
-2.12363e-40 1.325488e-39 2.285446e-39 3.529064e-39 -4.23013e-40 2.268701e-39 -2.296221e-39 1.855873e-39
1.000304e-39 3.251422e-39 3.04543e-40 -2.0408e-40 7.27791e-40 1.138182e-39 2.328524e-39 -3.146274e-39
-1.909348e-39 2.664663e-39 1.541573e-39 -8.53273e-40 -5.55724e-40 -3.472092e-39 -2.812609e-39 -1.267833e-39
-1.336357e-39 1.70459e-39 3.075627e-39 -1.449512e-39 8.26088e-40 2.730698e-39 1.443273e-39 -3.586237e-39
-2.668592e-39 1.200576e-39 -3.259758e-39 -1.08742e-39 -8.9854e-40 -1.220612e-39 2.86502e-39 2.008879e-39
1.652155e-39 -1.32297e-39 -9.78486e-40 8.8416e-41 1.235703e-39 -1.820874e-39 4.43712e-39 3.475387e-39
-1.407788e-39 2.233465e-39 4.14984e-39 -2.657057e-39 1.077125e-39 5.0672e-40 -1.553793e-39 1.052189e-39
-4.549578e-39 -3.305656e-39 1.570385e-39 1.850183e-39 -4.00158e-40 -9.15828e-40 1.41322e-40 4.171e-41
1.92133e-39 -3.209009e-39 -2.431e-42 4.448446e-39 -3.299524e-39 3.655929e-39 1.70467e-40 -1.094934e-39
-1.45342e-39 5.93542e-40 1.150055e-39 6.71666e-40 -4.78412e-40 -1.962988e-39 1.44701e-39 2.898612e-39
-1.965621e-39 -2.014784e-39 -3.39682e-40 2.934786e-39 1.97249e-39 -8.53391e-40 1.287835e-39 2.064959e-39
3.161203e-39 3.427044e-39 -2.540529e-39 -4.499736e-39 -3.161444e-39 -7.01863e-40 3.435095e-39 -7.38846e-40
-0.058307327 1.5646816 0.13540088 -0.4140923 -0.41543153 -1.3736421 2.1796565 -0.034856144
-2.0737371 -0.5431933 -0.32316557 1.1634907 -0.50672436 1.2780051 3.184544 -0.7921227
1.3026334 -0.44634134 2.218284 1.5711505 -1.3380268 -0.6744777 -0.17746714 1.4564533
2.158551 -0.35503653 0.34046715 0.7389927 1.451237 0.81771684 -0.18443756 0.33781838
0.6848881 -2.6981347 -0.5203838 -0.8271852 -0.9418599 -0.023299221 -0.40918997 0.30342418
0.039234128 0.17292511 0.31413436 -0.44614363 -1.9098327 3.061909 -1.3503494 -0.0651978
-0.37600735 -0.6287805 1.1944993 0.13710529 -0.48832488 -1.2376438 0.24090403 -0.3549139
-0.21474704 -0.15254349 -0.83085287 -0.5235242 1.2500697 -1.2472041 -2.021464 -0.8624622
0.12989436 -0.62601423 -0.019017505 0.37151232 -0.27954933 -0.41609424 -0.029217727 0.3826811
0.5490484 0.19474676 0.4055176 -0.23343234 0.33549064 -0.22549635 -0.40540832 -0.3448156
-0.07017726 0.33458176 -0.2900649 0.0128888115 0.21694964 0.22109024 -0.7790104 -0.27187783
-0.15009938 0.016083036 0.041064445 -0.050770745 0.32851547 -0.098909795 -0.1413867 -0.0021704037
-0.20310323 0.47881863 0.35647035 0.3210441 0.2408488 -0.22943778 0.03905352 -0.19210586
0.09411061 0.115695454 0.29588163 0.7815871 0.3107212 -0.4730939 0.1419661 -0.00924267
0.23854347 -0.46938705 -0.29459843 0.21786998 0.1823568 -0.39926144 -0.259922 -0.08669079
0.09888362 -0.06010561 0.47437066 0.013122339 -0.2081568 -0.03833556 0.20877297 0.3551166
00000000: 2937 1600 4a97 1a80 5df5 0580 c8e2 1580
00000010: 3e5c 2b00 0370 2600 562b 1980 2379 2800
00000020: b5e8 1900 e145 1700 3d4f 0d80 f6b1 1180
00000030: 982a 2500 d54c 0900 ea51 0500 9dcb 0180
00000040: 1025 2b00 f001 0a00 d58f 2980 5e2a 1200
00000050: 678a 3800 7ace 1780 d18e 1080 289c 2c80
00000060: ae35 0080 0109 0e80 6fe4 0d00 8e47 1f00
00000070: 34b1 0f80 b203 2c00 6e10 0f00 39b2 2100
00000080: fb4f 0280 ec6e 0e00 e5e2 1800 986d 2600
00000090: 309b 0480 37b4 1800 ee00 1980 6b35 1400
000000a0: 71e4 0a00 a467 2300 f150 0300 e438 0280
000000b0: c9ec 0700 ca64 0c00 fa5a 1900 8842 2280
000000c0: 7cca 1480 ff03 1d00 47c9 1000 944a 0980
000000d0: 220d 0680 c8ce 2580 69a0 1e80 34ce 0d80
000000e0: 388d 0e80 b48f 1200 997d 2100 a6c8 0f80
000000f0: ccfe 0800 13bc 1d00 42b7 0f00 f80c 2780
00000100: f30e 1d80 b812 0d00 e17e 2380 49d7 0b80
00000110: c4c8 0980 924a 0d80 8332 1f00 f0df 1500
00000120: 89fd 1100 e767 0e80 9fa7 0a80 78f6 0000
00000130: a374 0d00 dbd3 1380 e350 3000 f7d7 2500
00000140: 5754 0f80 fe51 1800 1130 2d00 cbee 1c80
00000150: 96ba 0b00 8784 0500 58eb 1080 1375 0b00
00000160: 5f8a 3180 d3fe 2380 9819 1100 8f25 1400
00000170: 7a5b 0480 f5f8 0980 f389 0100 4574 0000
00000180: e3eb 1400 69f1 2280 c706 0080 7570 3000
00000190: bbed 2380 3ecf 2700 31db 0100 3bec 0b80
000001a0: 8bd3 0f80 8e76 0600 e385 0c00 5550 0700
000001b0: 9e35 0580 0360 1580 adc1 0f00 2790 1f00
000001c0: 5a67 1580 66f0 1580 e5b2 0380 fdf4 1f00
000001d0: 807a 1500 e84a 0980 f605 0e00 447c 1600
000001e0: 266c 2200 3451 2500 f6a9 1b80 6fff 3080
000001f0: d26c 2280 82a4 0780 a667 2500 9a0b 0880
00000200: aad3 6ebd 7d47 c83f 87a6 0a3e e803 d4be
00000210: 71b3 d4be 81d3 afbf 7e7f 0b40 51c5 0ebd
00000220: 1cb8 04c0 b70e 0bbf f575 a5be 43ed 943f
00000230: b0b8 01bf ac95 a33f 92cf 4b40 8ec8 4abf
00000240: b1bc a63f da86 e4be 5df8 0d40 761b c93f
00000250: 7644 abbf 92aa 2cbf f2b9 35be 106d ba3f
00000260: b325 0a40 59c7 b5be b651 ae3e a02e 3d3f
00000270: 22c2 b93f e455 513f 33dd 3cbe 88f6 ac3e
00000280: d454 2f3f 3dae 2cc0 df37 05bf 69c2 53bf
00000290: bb1d 71bf 02de bebc 5981 d1be 6a5a 9b3e
000002a0: f7b3 203d 4813 313e 38d6 a03e f06c e4be
000002b0: 6675 f4bf 51f6 4340 40d8 acbf 6d86 85bd
000002c0: 0984 c0be c2f7 20bf 5ae5 983f 5465 0c3e
000002d0: b805 fabe 1d6b 9ebf 8caf 763e 46b7 b5be
000002e0: a6e6 5bbe 5c34 1cbe c6b2 54bf af05 06bf
000002f0: 4902 a03f 62a4 9fbf ab5f 01c0 53ca 5cbf
00000300: 0703 053e 7842 20bf 99ca 9bbc dd36 be3e
00000310: 1721 8fbe 4e0a d5be 045a efbc c7ee c33e
00000320: 708e 0c3f b26b 473e 01a0 cf3e e308 6fbe
00000330: 6ec5 ab3e 84e8 66be ae91 cfbe ac8b b0be
00000340: 18b9 8fbd 4d4e ab3e 6383 94be 982b 533c
00000350: 0c28 5e3e 7b65 623e 3a6d 47bf 9233 8bbe
00000360: a7b3 19be 92c0 833c 3133 283d fcf4 4fbd
00000370: 2e33 a83e 3891 cabd adc7 10be 553d 0ebb
00000380: 4bfa 4fbe b727 f53e 4883 b63e e45f a43e
00000390: 11a1 763e bdf1 6abe 95f6 1f3d 66b7 44be
000003a0: 10bd c03d bdf1 ec3d cc7d 973e 1816 483f
000003b0: d916 9f3e 5d39 f2be 905f 113e 916e 17bc
000003c0: bd44 743e 8053 f0be 9bd5 96be 4f19 5f3e
000003d0: bebb 3a3e ff6b ccbe 7f14 85be f18a b1bd
000003e0: 7f83 ca3d 4d31 76bd b6e0 f23e 14ff 563c
000003f0: 0e27 55be c005 1dbd 95c8 553e d8d1 b53e
